…
ri":"https://localhost:8080/"},"id":"EtgRtIKf2E9C","executionInfo":{"status":"ok","timestamp":1672618734141,"user_tz":-540,"elapsed":404,"user":{"displayName":"박준원","userId":"13178446148627772304"}},"outputId":"5ff69706-36cc-4819-8597-aaaced03ef39"},"execution_count":null,"outputs":[{"output_type":"stream","name":"stdout","text":["Model: \"sequential_1\"\n","_________________________________________________________________\n"," Layer (type)                Output Shape              Param #   \n","=================================================================\n"," conv2d_5 (Conv2D)           (None, 296, 296, 32)      832       \n","                                                                 \n"," max_pooling2d_5 (MaxPooling  (None, 148, 148, 32)     0         \n"," 2D)                                                             \n","                                                                 \n"," conv2d_6 (Conv2D)           (None, 146, 146, 64)      18496     \n","                                                                 \n"," max_pooling2d_6 (MaxPooling  (None, 73, 73, 64)       0         \n"," 2D)                                                             \n","                                                                 \n"," conv2d_7 (Conv2D)           (None, 69, 69, 64)        102464    \n","                                                                 \n"," max_pooling2d_7 (MaxPooling  (None, 34, 34, 64)       0         \n"," 2D)                                                             \n","                                                                 \n"," conv2d_8 (Conv2D)           (None, 32, 32, 128)       73856     \n","                                                                 \n"," max_pooling2d_8 (MaxPooling  (None, 16, 16, 128)      0         \n"," 2D)                                                             \n","                                                                 \n"," conv2d_9 (Conv2D)           (None, 12, 12, 128)       409728    \n","                                                                 \n"," max_pooling2d_9 (MaxPooling  (None, 6, 6, 128)        0         \n"," 2D)                                                             \n","                                                                 \n"," flatten_1 (Flatten)         (None, 4608)              0         \n","                                                                 \n"," dense_2 (Dense)             (None, 256)               1179904   \n","                                                                 \n"," dense_3 (Dense)             (None, 4)                 1028      \n","                                                                 \n","=================================================================\n","Total params: 1,786,308\n","Trainable params: 1,786,308\n","Non-trainable params: 0\n","_________________________________________________________________\n"]}]},{"cell_type":"code","source":["pred(gray_0[80])"],"metadata":{"colab":{"base_uri":"https
…
