…
figz8","executionInfo":{"status":"ok","timestamp":1672965927221,"user_tz":-540,"elapsed":15,"user":{"displayName":"박준원","userId":"13178446148627772304"}},"outputId":"5005b13c-6147-4791-f87c-5ee2ca6f3df8","colab":{"base_uri":"https://localhost:8080/"}},"execution_count":null,"outputs":[{"output_type":"stream","name":"stdout","text":["Model: \"sequential\"\n","_________________________________________________________________\n"," Layer (type)                Output Shape              Param #   \n","=================================================================\n"," conv2d (Conv2D)             (None, 96, 96, 32)        2432      \n","                                                                 \n"," max_pooling2d (MaxPooling2D  (None, 48, 48, 32)       0         \n"," )                                                               \n","                                                                 \n"," conv2d_1 (Conv2D)           (None, 48, 48, 64)        18496     \n","                                                                 \n"," max_pooling2d_1 (MaxPooling  (None, 24, 24, 64)       0         \n"," 2D)                                                             \n","                                                                 \n"," conv2d_2 (Conv2D)           (None, 24, 24, 64)        102464    \n","                                                                 \n"," max_pooling2d_2 (MaxPooling  (None, 12, 12, 64)       0         \n"," 2D)                                                             \n","                                                                 \n"," conv2d_3 (Conv2D)           (None, 12, 12, 128)       73856     \n","                                                                 \n"," max_pooling2d_3 (MaxPooling  (None, 6, 6, 128)        0         \n"," 2D)                                                             \n","                                                                 \n"," conv2d_4 (Conv2D)           (None, 6, 6, 128)         409728    \n","                                                                 \n"," max_pooling2d_4 (MaxPooling  (None, 3, 3, 128)        0         \n"," 2D)                                                             \n","                                                                 \n"," flatten (Flatten)           (None, 1152)              0         \n","                                                                 \n"," dense (Dense)               (None, 256)               295168    \n","                                                                 \n"," dense_1 (Dense)             (None, 4)                 1028      \n","                                                                 \n","=================================================================\n","Total params: 903,172\n","Trainable params: 903,172\n","Non-trainable params: 0\n","_________________________________________________________________\n"]}]},{"cell_type":"code","source":["import time\n","start_time  = time.time()\n","hist = model.fi
…
