…
4  0          ['block2a_expand_bn[0][0]']      \n"," ivation)                       4)                                                                \n","                                                                                                  \n"," block2a_dwconv_pad (ZeroPaddin  (None, 113, 113, 14  0          ['block2a_expand_activation[0][0]\n"," g2D)                           4)                               ']                               \n","                                                                                                  \n"," block2a_dwconv (DepthwiseConv2  (None, 56, 56, 144)  1296       ['block2a_dwconv_pad[0][0]']     \n"," D)                                                                                               \n","                                                                                                  \n"," block2a_bn (BatchNormalization  (None, 56, 56, 144)  576        ['block2a_dwconv[0][0]']         \n"," )                                                                                                \n","                                                                                                  \n"," block2a_activation (Activation  (None, 56, 56, 144)  0          ['block2a_bn[0][0]']             \n"," )                                                                                                \n","                                                                                                  \n"," block2a_se_squeeze (GlobalAver  (None, 144)         0           ['block2a_activation[0][0]']     \n"," agePooling2D)                                                                                    \n","                                                                                                  \n"," block2a_se_reshape (Reshape)   (None, 1, 1, 144)    0           ['block2a_se_squeeze[0][0]']     \n","                                                                                                  \n"," block2a_se_reduce (Conv2D)     (None, 1, 1, 6)      870         ['block2a_se_reshape[0][0]']     \n","                                                                                                  \n"," block2a_se_expand (Conv2D)     (None, 1, 1, 144)    1008        ['block2a_se_reduce[0][0]']      \n","                                                                                                  \n"," block2a_se_excite (Multiply)   (None, 56, 56, 144)  0           ['block2a_activation[0][0]',     \n","                                                                  'block2a_se_expand[0][0]']      \n","                                                                                                  \n"," block2a_project_conv (Conv2D)  (None, 56, 56, 32)   4608        ['block2a_se_excite[0][0]']      \n","                                                                                                  \n"," block2a_project_bn (BatchNorma  (None, 56, 56, 32)  128         ['block2a_project_conv[0][0]']   \n"," lization)                                                                                        \n","                                                                                                  \n"," block2b_expand_conv (Conv2D)   (None, 56, 56, 192)  6144        ['block2a_project_bn[0][0]']     \n","                                                                                                  \n"," block2b_expand_bn (BatchNormal  (None, 56, 56, 192)  768        ['block2b_expand_conv[0][0]']    \n"," ization)                                                                                         \n","                                                                                                  \n"," block2b_expand_activation (Act  (None, 56, 56, 192)  0          ['block2b_expand_bn[0][0]']      \n"," ivation)                                                                                         \n","                                                                                                  \n"," block2b_dwconv (DepthwiseConv2  (None, 56, 56, 192)  1728       ['block2b_expand_activation[0][0]\n"," D)                                                              ']                               \n","                                                                                                  \n"," block2b_bn (BatchNormalization  (None, 56, 56, 192)  768        ['block2b_dwconv[0][0]']         \n"," )                                                                                                \n","                                                                                                  \n"," block2b_activation (Activation  (None, 56, 56, 192)  0          ['block2b_bn[0][0]']             \n"," )                                                                                                \n","                                                                                                  \n"," block2b_se_squeeze (GlobalAver  (None, 192)         0           ['block2b_activation[0][0]']     \n"," agePooling2D)                                                                                    \n","                                                                                                  \n"," block2b_se_reshape (Reshape)   (None, 1, 1, 192)    0           ['block2b_se_squeeze[0][0]']     \n","                                                                                                  \n"," block2b_se_reduce (Conv2D)     (None, 1, 1, 8)      1544        ['block2b_se_reshape[0][0]']     \n","                                                                                                  \n"," block2b_se_expand (Conv2D)     (None, 1, 1, 192)    1728        ['block2b_se_reduce[0][0]']      \n","                                                                                                  \n"," block2b_se_excite (Multiply)   (None, 56, 56, 192)  0           ['block2b_activation[0][0]',     \n","                                                                  'block2b_se_expand[0][0]']      \n","                                                                                                  \n"," block2b_project_conv (Conv2D)  (None, 56, 56, 32)   6144        ['block2b_se_excite[0][0]']      \n","                                                                                                  \n"," block2b_project_bn (BatchNorma  (None, 56, 56, 32)  128         ['block2b_project_conv[0][0]']   \n"," lization)                                                                                        \n","                                                                                                  \n"," block2b_drop (Dropout)         (None, 56, 56, 32)   0           ['block2b_project_bn[0][0]']     \n","                                                                                                  \n"," block2b_add (Add)              (None, 56, 56, 32)   0           ['block2b_drop[0][0]',           \n","                                                                  'block2a_project_bn[0][0]']     \n","                                                                                                  \n"," block2c_expand_conv (Conv2D)   (None, 56, 56, 192)  6144        ['block2b_add[0][0]']            \n","                                                                                                  \n"," block2c_expand_bn (BatchNormal  (None, 56, 56, 192)  768        ['block2c_expand_conv[0][0]']    \n"," ization)                                                                                         \n","                                                                                                  \n"," block2c_expand_activation (Act  (None, 56, 56, 192)  0          ['block2c_expand_bn[0][0]']      \n"," ivation)                                                                                         \n","                                                                                                  \n"," block2c_dwconv (DepthwiseConv2  (None, 56, 56, 192)  1728       ['block2c_expand_activation[0][0]\n"," D)                                                              ']                               \n","                                                                                                  \n"," block2c_bn (BatchNormalization  (None, 56, 56, 192)  768        ['block2c_dwconv[0][0]']         \n"," )                                                                                                \n","                                                                                                  \n"," block2c_activation (Activation  (None, 56, 56, 192)  0          ['block2c_bn[0][0]']             \n"," )                                                                                                \n","                                                                                                  \n"," block2c_se_squeeze (GlobalAver  (None, 192)         0           ['block2c_activation[0][0]']     \n"," agePooling2D)                                                                                    \n","                                                                                                  \n"," block2c_se_reshape (Reshape)   (None, 1, 1, 192)    0           ['block2c_se_squeeze[0][0]']     \n","                                                                                                  \n"," block2c_se_reduce (Conv2D)     (None, 1, 1, 8)      1544        ['block2c_se_reshape[0][0]']     \n","                                                                                                  \n"," block2c_se_expand (Conv2D)     (None, 1, 1, 192)    1728        ['block2c_se_reduce[0][0]']      \n","                                                                                                  \n"," block2c_se_excite (Multiply)   (None, 56, 56, 192)  0           ['block2c_activation[0][0]',     \n","                                                                  'block2c_se_expand[0][0]']      \n","                                                                                                  \n"," block2c_project_conv (Conv2D)  (None, 56, 56, 32)   6144        ['block2c_se_excite[0][0]']      \n","                                                                                                  \n"," block2c_project_bn (BatchNorma  (None, 56, 56, 32)  128         ['block2c_project_conv[0][0]']   \n"," lization)                                                                                        \n","                                                                                                  \n"," block2c_drop (Dropout)         (None, 56, 56, 32)   0           ['block2c_project_bn[0][0]']     \n","                                                                                                  \n"," block2c_add (Add)              (None, 56, 56, 32)   0           ['block2c_drop[0][0]',           \n","                                                                  'block2b_add[0][0]']            \n","                                                                                                  \n"," block2d_expand_conv (Conv2D)   (None, 56, 56, 192)  6144        ['block2c_add[0][0]']            \n","                                                                                                  \n"," block2d_expand_bn (BatchNormal  (None, 56, 56, 192)  768        ['block2d_expand_conv[0][0]']    \n"," ization)                                                                                         \n","                                                                                                  \n"," block2d_expand_activation (Act  (None, 56, 56, 192)  0          ['block2d_expand_bn[0][0]']      \n"," ivation)                                                                                         \n","                                                                                                  \n"," block2d_dwconv (DepthwiseConv2  (None, 56, 56, 192)  1728       ['block2d_expand_activation[0][0]\n"," D)                                                              ']                               \n","                                                                                                  \n"," block2d_bn (BatchNormalization  (None, 56, 56, 192)  768        ['block2d_dwconv[0][0]']         \n"," )                                                                                                \n","                                                                                                  \n"," block2d_activation (Activation  (None, 56, 56, 192)  0          ['block2d_bn[0][0]']             \n"," )                                                                                                \n","                                                                                                  \n"," block2d_se_squeeze (GlobalAver  (None, 192)         0           ['block2d_activation[0][0]']     \n"," agePooling2D)                                                                                    \n","                                                                                                  \n"," block2d_se_reshape (Reshape)   (None, 1, 1, 192)    0           ['block2d_se_squeeze[0][0]']     \n","                                                                                                  \n"," block2d_se_reduce (Conv2D)     (None, 1, 1, 8)      1544        ['block2d_se_reshape[0][0]']     \n","                                                                                                  \n"," block2d_se_expand (Conv2D)     (None, 1, 1, 192)    1728        ['block2d_se_reduce[0][0]']      \n","                                                                                                  \n"," block2d_se_excite (Multiply)   (None, 56, 56, 192)  0           ['block2d_activation[0][0]',     \n","                                                                  'block2d_se_expand[0][0]']      \n","                                                                                                  \n"," block2d_project_conv (Conv2D)  (None, 56, 56, 32)   6144        ['block2d_se_excite[0][0]']      \n","                                                                                                  \n"," block2d_project_bn (BatchNorma  (None, 56, 56, 32)  128         ['block2d_project_conv[0][0]']   \n"," lization)                                                                                        \n","                                                                                                  \n"," block2d_drop (Dropout)         (None, 56, 56, 32)   0           ['block2d_project_bn[0][0]']     \n","                                                                                                  \n"," block2d_add (Add)              (None, 56, 56, 32)   0           ['block2d_drop[0][0]',           \n","                                                                  'block2c_add[0][0]']            \n","                                                                                                  \n"," block3a_expand_conv (Conv2D)   (None, 56, 56, 192)  6144        ['block2d_add[0][0]']            \n","                                                                                                  \n"," block3a_expand_bn (BatchNormal  (None, 56, 56, 192)  768        ['block3a_expand_conv[0][0]']    \n"," ization)                                                                                         \n","                                                                                                  \n"," block3a_expand_activation (Act  (None, 56, 56, 192)  0          ['block3a_expand_bn[0][0]']      \n"," ivation)                                                                                         \n","                                                                                                  \n"," block3a_dwconv_pad (ZeroPaddin  (None, 59, 59, 192)  0          ['block3a_expand_activation[0][0]\n"," g2D)                                                            ']                               \n","                                                                                                  \n"," block3a_dwconv (DepthwiseConv2  (None, 28, 28, 192)  4800       ['block3a_dwconv_pad[0][0]']     \n"," D)                                                                                               \n","                                                                                                  \n"," block3a_bn (BatchNormalization  (None, 28, 28, 192)  768        ['block3a_dwconv[0][0]']         \n"," )                                                                                                \n","                                                                                                  \n"," block3a_activation (Activation  (None, 28, 28, 192)  0          ['block3a_bn[0][0]']             \n"," )                                                                                                \n","                                                                                                  \n"," block3a_se_squeeze (GlobalAver  (None, 192)         0           ['block3a_activation[0][0]']     \n"," agePooling2D)                                                                                    \n","                                                                                                  \n"," block3a_se_reshape (Reshape)   (None, 1, 1, 192)    0           ['block3a_se_squeeze[0][0]']     \n","                                                                                                  \n"," block3a_se_reduce (Conv2D)     (None, 1, 1, 8)      1544        ['block3a_se_reshape[0][0]']     \n","                                                                                                  \n"," block3a_se_expand (Conv2D)     (None, 1, 1, 192)    1728        ['block3a_se_reduce[0][0]']      \n","                                                                                                  \n"," block3a_se_excite (Multiply)   (None, 28, 28, 192)  0           ['block3a_activation[0][0]',     \n","                                                                  'block3a_se_expand[0][0]']      \n","                                                                                                  \n"," block3a_project_conv (Conv2D)  (None, 28, 28, 56)   10752       ['block3a_se_excite[0][0]']      \n","                                                                                                  \n"," block3a_project_bn (BatchNorma  (None, 28, 28, 56)  224         ['block3a_project_conv[0][0]']   \n"," lization)                                                                                        \n","                                                                                                  \n"," block3b_expand_conv (Conv2D)   (None, 28, 28, 336)  18816       ['block3a_project_bn[0][0]']     \n","                                                                                                  \n"," block3b_expand_bn (BatchNormal  (None, 28, 28, 336)  1344       ['block3b_expand_conv[0][0]']    \n"," ization)                                                                                         \n","                                                                                                  \n"," block3b_expand_activation (Act  (None, 28, 28, 336)  0          ['block3b_expand_bn[0][0]']      \n"," ivation)                                                                                         \n","                                                                                                  \n"," block3b_dwconv (DepthwiseConv2  (None, 28, 28, 336)  8400       ['block3b_expand_activation[0][0]\n"," D)                                                              ']                               \n","                                                                                                  \n"," block3b_bn (BatchNormalization  (None, 28, 28, 336)  1344       ['block3b_dwconv[0][0]']         \n"," )                                                                                                \n","                                                                                                  \n"," block3b_activation (Activation  (None, 28, 28, 336)  0          ['block3b_bn[0][0]']             \n"," )                                                                                                \n","                                                                                                  \n"," block3b_se_squeeze (GlobalAver  (None, 336)         0           ['block3b_activation[0][0]']     \n"," agePooling2D)                                                                                    \n","                                                                                                  \n"," block3b_se_reshape (Reshape)   (None, 1, 1, 336)    0           ['block3b_se_squeeze[0][0]']     \n","                                                                                                  \n"," block3b_se_reduce (Conv2D)     (None, 1, 1, 14)     4718        ['block3b_se_reshape[0][0]']     \n","                                                                                                  \n"," block3b_se_expand (Conv2D)     (None, 1, 1, 336)    5040        ['block3b_se_reduce[0][0]']      \n","                                                                                                  \n"," block3b_se_excite (Multiply)   (None, 28, 28, 336)  0           ['block3b_activation[0][0]',     \n","                                                                  'block3b_se_expand[0][0]']      \n","                                                                                                  \n"," block3b_project_conv (Conv2D)  (None, 28, 28, 56)   18816       ['block3b_se_excite[0][0]']      \n","                                                                                                  \n"," block3b_project_bn (BatchNorma  (None, 28, 28, 56)  224         ['block3b_project_conv[0][0]']   \n"," lization)                                                                                        \n","                                                                                                  \n"," block3b_drop (Dropout)         (None, 28, 28, 56)   0           ['block3b_project_bn[0][0]']     \n","                                                                                                  \n"," block3b_add (Add)              (None, 28, 28, 56)   0           ['block3b_drop[0][0]',           \n","                                                                  'block3a_project_bn[0][0]']     \n","                                                                                                  \n"," block3c_expand_conv (Conv2D)   (None, 28, 28, 336)  18816       ['block3b_add[0][0]']            \n","                                                                                                  \n"," block3c_expand_bn (BatchNormal  (None, 28, 28, 336)  1344       ['block3c_expand_conv[0][0]']    \n"," ization)                                                                                         \n","                                                                                                  \n"," block3c_expand_activation (Act  (None, 28, 28, 336)  0          ['block3c_expand_bn[0][0]']      \n"," ivation)                                                                                         \n","                                                                                                  \n"," block3c_dwconv (DepthwiseConv2  (None, 28, 28, 336)  8400       ['block3c_expand_activation[0][0]\n"," D)                                                              ']                               \n","                                                                                                  \n"," block3c_bn (BatchNormalization  (None, 28, 28, 336)  1344       ['block3c_dwconv[0][0]']         \n"," )                                                                                                \n","                                                                                                  \n"," block3c_activation (Activation  (None, 28, 28, 336)  0          ['block3c_bn[0][0]']             \n"," )                                                                                                \n","                                                                                                  \n"," block3c_se_squeeze (GlobalAver  (None, 336)         0           ['block3c_activation[0][0]']     \n"," agePooling2D)                                                                                    \n","                                                                                                  \n"," block3c_se_reshape (Reshape)   (None, 1, 1, 336)    0           ['block3c_se_squeeze[0][0]']     \n","                                                                                                  \n"," block3c_se_reduce (Conv2D)     (None, 1, 1, 14)     4718        ['block3c_se_reshape[0][0]']     \n","                                                                                                  \n"," block3c_se_expand (Conv2D)     (None, 1, 1, 336)    5040        ['block3c_se_reduce[0][0]']      \n","                                                                                                  \n"," block3c_se_excite (Multiply)   (None, 28, 28, 336)  0           ['block3c_activation[0][0]',     \n","                                                                  'block3c_se_expand[0][0]']      \n","                                                                                                  \n"," block3c_project_conv (Conv2D)  (None, 28, 28, 56)   18816       ['block3c_se_excite[0][0]']      \n","                                                                                                  \n"," block3c_project_bn (BatchNorma  (None, 28, 28, 56)  224         ['block3c_project_conv[0][0]']   \n"," lization)                                                                                        \n","                                                                                                  \n"," block3c_drop (Dropout)         (None, 28, 28, 56)   0           ['block3c_project_bn[0][0]']     \n","                                                                                                  \n"," block3c_add (Add)              (None, 28, 28, 56)   0           ['block3c_drop[0][0]',           \n","                                                                  'block3b_add[0][0]']            \n","                                                                                                  \n"," block3d_expand_conv (Conv2D)   (None, 28, 28, 336)  18816       ['block3c_add[0][0]']            \n","                                                                                                  \n"," block3d_expand_bn (BatchNormal  (None, 28, 28, 336)  1344       ['block3d_expand_conv[0][0]']    \n"," ization)                                                                                         \n","                                                                                                  \n"," block3d_expand_activation (Act  (None, 28, 28, 336)  0          ['block3d_expand_bn[0][0]']      \n"," ivation)                                                                                         \n","                                                                                                  \n"," block3d_dwconv (DepthwiseConv2  (None, 28, 28, 336)  8400       ['block3d_expand_activation[0][0]\n"," D)                                                              ']                               \n","                                                                                                  \n"," block3d_bn (BatchNormalization  (None, 28, 28, 336)  1344       ['block3d_dwconv[0][0]']         \n"," )                                                                                                \n","                                                                                                  \n"," block3d_activation (Activation  (None, 28, 28, 336)  0          ['block3d_bn[0][0]']             \n"," )                                                                                                \n","                                                                                                  \n"," block3d_se_squeeze (GlobalAver  (None, 336)         0           ['block3d_activation[0][0]']     \n"," agePooling2D)                                                                                    \n","                                                                                                  \n"," block3d_se_reshape (Reshape)   (None, 1, 1, 336)    0           ['block3d_se_squeeze[0][0]']     \n","                                                                                                  \n"," block3d_se_reduce (Conv2D)     (None, 1, 1, 14)     4718        ['block3d_se_reshape[0][0]']     \n","                                                                                                  \n"," block3d_se_expand (Conv2D)     (None, 1, 1, 336)    5040        ['block3d_se_reduce[0][0]']      \n","                                                                                                  \n"," block3d_se_excite (Multiply)   (None, 28, 28, 336)  0           ['block3d_activation[0][0]',     \n","                                                                  'block3d_se_expand[0][0]']      \n","                                                                                                  \n"," block3d_project_conv (Conv2D)  (None, 28, 28, 56)   18816       ['block3d_se_excite[0][0]']      \n","                                                                                                  \n"," block3d_project_bn (BatchNorma  (None, 28, 28, 56)  224         ['block3d_project_conv[0][0]']   \n"," lization)                                                                                        \n","                                                                                                  \n"," block3d_drop (Dropout)         (None, 28, 28, 56)   0           ['block3d_project_bn[0][0]']     \n","                                                                                                  \n"," block3d_add (Add)              (None, 28, 28, 56)   0           ['block3d_drop[0][0]',           \n","                                                                  'block3c_add[0][0]']            \n","                                                                                                  \n"," block4a_expand_conv (Conv2D)   (None, 28, 28, 336)  18816       ['block3d_add[0][0]']            \n","                                                                                                  \n"," block4a_expand_bn (BatchNormal  (None, 28, 28, 336)  1344       ['block4a_expand_conv[0][0]']    \n"," ization)                                                                                         \n","                                                                                                  \n"," block4a_expand_activation (Act  (None, 28, 28, 336)  0          ['block4a_expand_bn[0][0]']      \n"," ivation)                                                                                         \n","                                                                                                  \n"," block4a_dwconv_pad (ZeroPaddin  (None, 29, 29, 336)  0          ['block4a_expand_activation[0][0]\n"," g2D)                                                            ']                               \n","                                                                                                  \n"," block4a_dwconv (DepthwiseConv2  (None, 14, 14, 336)  3024       ['block4a_dwconv_pad[0][0]']     \n"," D)                                                                                               \n","                                                                                                  \n"," block4a_bn (BatchNormalization  (None, 14, 14, 336)  1344       ['block4a_dwconv[0][0]']         \n"," )                                                                                                \n","                                                                                                  \n"," block4a_activation (Activation  (None, 14, 14, 336)  0          ['block4a_bn[0][0]']             \n"," )                                                                                                \n","                                                                                                  \n"," block4a_se_squeeze (GlobalAver  (None, 336)         0           ['block4a_activation[0][0]']     \n"," agePooling2D)                                                                                    \n","                                                                                                  \n"," block4a_se_reshape (Reshape)   (None, 1, 1, 336)    0           ['block4a_se_squeeze[0][0]']     \n","                                                                                                  \n"," block4a_se_reduce (Conv2D)     (None, 1, 1, 14)     4718        ['block4a_se_reshape[0][0]']     \n","                                                                                                  \n"," block4a_se_expand (Conv2D)     (None, 1, 1, 336)    5040        ['block4a_se_reduce[0][0]']      \n","                                                                                                  \n"," block4a_se_excite (Multiply)   (None, 14, 14, 336)  0           ['block4a_activation[0][0]',     \n","                                                                  'block4a_se_expand[0][0]']      \n","                                                                                                  \n"," block4a_project_conv (Conv2D)  (None, 14, 14, 112)  37632       ['block4a_se_excite[0][0]']      \n","                                                                                                  \n"," block4a_project_bn (BatchNorma  (None, 14, 14, 112)  448        ['block4a_project_conv[0][0]']   \n"," lization)                                                                                        \n","                                                                                                  \n"," block4b_expand_conv (Conv2D)   (None, 14, 14, 672)  75264       ['block4a_project_bn[0][0]']     \n","                                                                                                  \n"," block4b_expand_bn (BatchNormal  (None, 14, 14, 672)  2688       ['block4b_expand_conv[0][0]']    \n"," ization)                                                                                         \n","                                                                                                  \n"," block4b_expand_activation (Act  (None, 14, 14, 672)  0          ['block4b_expand_bn[0][0]']      \n"," ivation)                                                                                         \n","                                                                                                  \n"," block4b_dwconv (DepthwiseConv2  (None, 14, 14, 672)  6048       ['block4b_expand_activation[0][0]\n"," D)                                                              ']                               \n","                                                                                                  \n"," block4b_bn (BatchNormalization  (None, 14, 14, 672)  2688       ['block4b_dwconv[0][0]']         \n"," )                                                                                                \n","                                                                                                  \n"," block4b_activation (Activation  (None, 14, 14, 672)  0          ['block4b_bn[0][0]']             \n"," )                                                                                                \n","                                                                                                  \n"," block4b_se_squeeze (GlobalAver  (None, 672)         0           ['block4b_activation[0][0]']     \n"," agePooling2D)                                                                                    \n","                                                                                                  \n"," block4b_se_reshape (Reshape)   (None, 1, 1, 672)    0           ['block4b_se_squeeze[0][0]']     \n","                                                                                                  \n"," block4b_se_reduce (Conv2D)     (None, 1, 1, 28)     18844       ['block4b_se_reshape[0][0]']     \n","                                                                                                  \n"," block4b_se_expand (Conv2D)     (None, 1, 1, 672)    19488       ['block4b_se_reduce[0][0]']      \n","                                                                                                  \n"," block4b_se_excite (Multiply)   (None, 14, 14, 672)  0           ['block4b_activation[0][0]',     \n","                                                                  'block4b_se_expand[0][0]']      \n","                                                                                                  \n"," block4b_project_conv (Conv2D)  (None, 14, 14, 112)  75264       ['block4b_se_excite[0][0]']      \n","                                                                                                  \n"," block4b_project_bn (BatchNorma  (None, 14, 14, 112)  448        ['block4b_project_conv[0][0]']   \n"," lization)                                                                                        \n","                                                                                                  \n"," block4b_drop (Dropout)         (None, 14, 14, 112)  0           ['block4b_project_bn[0][0]']     \n","                                                                                                  \n"," block4b_add (Add)              (None, 14, 14, 112)  0           ['block4b_drop[0][0]',           \n","                                                                  'block4a_project_bn[0][0]']     \n","                                                                                                  \n"," block4c_expand_conv (Conv2D)   (None, 14, 14, 672)  75264       ['block4b_add[0][0]']            \n","                                                                                                  \n"," block4c_expand_bn (BatchNormal  (None, 14, 14, 672)  2688       ['block4c_expand_conv[0][0]']    \n"," ization)                                                                                         \n","                                                                                                  \n"," block4c_expand_activation (Act  (None, 14, 14, 672)  0          ['block4c_expand_bn[0][0]']      \n"," ivation)                                                                                         \n","                                                                                                  \n"," block4c_dwconv (DepthwiseConv2  (None, 14, 14, 672)  6048       ['block4c_expand_activation[0][0]\n"," D)                                                              ']                               \n","                                                                                                  \n"," block4c_bn (BatchNormalization  (None, 14, 14, 672)  2688       ['block4c_dwconv[0][0]']         \n"," )                                                                                                \n","                                                                                                  \n"," block4c_activation (Activation  (None, 14, 14, 672)  0          ['block4c_bn[0][0]']             \n"," )                                                                                                \n","                                                                                                  \n"," block4c_se_squeeze (GlobalAver  (None, 672)         0           ['block4c_activation[0][0]']     \n"," agePooling2D)                                                                                    \n","                                                                                                  \n"," block4c_se_reshape (Reshape)   (None, 1, 1, 672)    0           ['block4c_se_squeeze[0][0]']     \n","                                                                                                  \n"," block4c_se_reduce (Conv2D)     (None, 1, 1, 28)     18844       ['block4c_se_reshape[0][0]']     \n","                                                                                                  \n"," block4c_se_expand (Conv2D)     (None, 1, 1, 672)    19488       ['block4c_se_reduce[0][0]']      \n","                                                                                                  \n"," block4c_se_excite (Multiply)   (None, 14, 14, 672)  0           ['block4c_activation[0][0]',     \n","                                                                  'block4c_se_expand[0][0]']      \n","                                                                                                  \n"," block4c_project_conv (Conv2D)  (None, 14, 14, 112)  75264       ['block4c_se_excite[0][0]']      \n","                                                                                                  \n"," block4c_project_bn (BatchNorma  (None, 14, 14, 112)  448        ['block4c_project_conv[0][0]']   \n"," lization)                                                                                        \n","                                                                                                  \n"," block4c_drop (Dropout)         (None, 14, 14, 112)  0           ['block4c_project_bn[0][0]']     \n","                                                                                                  \n"," block4c_add (Add)              (None, 14, 14, 112)  0           ['block4c_drop[0][0]',           \n","                                                                  'block4b_add[0][0]']            \n","                                                                                                  \n"," block4d_expand_conv (Conv2D)   (None, 14, 14, 672)  75264       ['block4c_add[0][0]']            \n","                                                                                                  \n"," block4d_expand_bn (BatchNormal  (None, 14, 14, 672)  2688       ['block4d_expand_conv[0][0]']    \n"," ization)                                                                                         \n","                                                                                                  \n"," block4d_expand_activation (Act  (None, 14, 14, 672)  0          ['block4d_expand_bn[0][0]']      \n"," ivation)                                                                                         \n","                                                                                                  \n"," block4d_dwconv (DepthwiseConv2  (None, 14, 14, 672)  6048       ['block4d_expand_activation[0][0]\n"," D)                                                              ']                               \n","                                                                                                  \n"," block4d_bn (BatchNormalization  (None, 14, 14, 672)  2688       ['block4d_dwconv[0][0]']         \n"," )                                                                                                \n","                                                                                                  \n"," block4d_activation (Activation  (None, 14, 14, 672)  0          ['block4d_bn[0][0]']             \n"," )                                                                                                \n","                                                                                                  \n"," block4d_se_squeeze (GlobalAver  (None, 672)         0           ['block4d_activation[0][0]']     \n"," agePooling2D)                                                                                    \n","                                                                                                  \n"," block4d_se_reshape (Reshape)   (None, 1, 1, 672)    0           ['block4d_se_squeeze[0][0]']     \n","                                                                                                  \n"," block4d_se_reduce (Conv2D)     (None, 1, 1, 28)     18844       ['block4d_se_reshape[0][0]']     \n","                                                                                                  \n"," block4d_se_expand (Conv2D)     (None, 1, 1, 672)    19488       ['block4d_se_reduce[0][0]']      \n","                                                                                                  \n"," block4d_se_excite (Multiply)   (None, 14, 14, 672)  0           ['block4d_activation[0][0]',     \n","                                                                  'block4d_se_expand[0][0]']      \n","                                                                                                  \n"," block4d_project_conv (Conv2D)  (None, 14, 14, 112)  75264       ['block4d_se_excite[0][0]']      \n","                                                                                                  \n"," block4d_project_bn (BatchNorma  (None, 14, 14, 112)  448        ['block4d_project_conv[0][0]']   \n"," lization)                                                                                        \n","                                                                                                  \n"," block4d_drop (Dropout)         (None, 14, 14, 112)  0           ['block4d_project_bn[0][0]']     \n","                                                                                                  \n"," block4d_add (Add)              (None, 14, 14, 112)  0           ['block4d_drop[0][0]',           \n","                                                                  'block4c_add[0][0]']            \n","                                                                                                  \n"," block4e_expand_conv (Conv2D)   (None, 14, 14, 672)  75264       ['block4d_add[0][0]']            \n","                                                                                                  \n"," block4e_expand_bn (BatchNormal  (None, 14, 14, 672)  2688       ['block4e_expand_conv[0][0]']    \n"," ization)                                                                                         \n","                                                                                                  \n"," block4e_expand_activation (Act  (None, 14, 14, 672)  0          ['block4e_expand_bn[0][0]']      \n"," ivation)                                                                                         \n","                                                                                                  \n"," block4e_dwconv (DepthwiseConv2  (None, 14, 14, 672)  6048       ['block4e_expand_activation[0][0]\n"," D)                                                              ']                               \n","                                                                                                  \n"," block4e_bn (BatchNormalization  (None, 14, 14, 672)  2688       ['block4e_dwconv[0][0]']         \n"," )                                                                                                \n","                                                                                                  \n"," block4e_activation (Activation  (None, 14, 14, 672)  0          ['block4e_bn[0][0]']             \n"," )                                                                                                \n","                                                                                                  \n"," block4e_se_squeeze (GlobalAver  (None, 672)         0           ['block4e_activation[0][0]']     \n"," agePooling2D)                                                                                    \n","                                                                                                  \n"," block4e_se_reshape (Reshape)   (None, 1, 1, 672)    0           ['block4e_se_squeeze[0][0]']     \n","                                                                                                  \n"," block4e_se_reduce (Conv2D)     (None, 1, 1, 28)     18844       ['block4e_se_reshape[0][0]']     \n","                                                                                                  \n"," block4e_se_expand (Conv2D)     (None, 1, 1, 672)    19488       ['block4e_se_reduce[0][0]']      \n","                                                                                                  \n"," block4e_se_excite (Multiply)   (None, 14, 14, 672)  0           ['block4e_activation[0][0]',     \n","                                                                  'block4e_se_expand[0][0]']      \n","                                                                                                  \n"," block4e_project_conv (Conv2D)  (None, 14, 14, 112)  75264       ['block4e_se_excite[0][0]']      \n","                                                                                                  \n"," block4e_project_bn (BatchNorma  (None, 14, 14, 112)  448        ['block4e_project_conv[0][0]']   \n"," lization)                                                                                        \n","                                                                                                  \n"," block4e_drop (Dropout)         (None, 14, 14, 112)  0           ['block4e_project_bn[0][0]']     \n","                                                                                                  \n"," block4e_add (Add)              (None, 14, 14, 112)  0           ['block4e_drop[0][0]',           \n","                                                                  'block4d_add[0][0]']            \n","                                                                                                  \n"," block4f_expand_conv (Conv2D)   (None, 14, 14, 672)  75264       ['block4e_add[0][0]']            \n","                                                                                                  \n"," block4f_expand_bn (BatchNormal  (None, 14, 14, 672)  2688       ['block4f_expand_conv[0][0]']    \n"," ization)                                                                                         \n","                                                                                                  \n"," block4f_expand_activation (Act  (None, 14, 14, 672)  0          ['block4f_expand_bn[0][0]']      \n"," ivation)                                                                                         \n","                                                                                                  \n"," block4f_dwconv (DepthwiseConv2  (None, 14, 14, 672)  6048       ['block4f_expand_activation[0][0]\n"," D)                                                              ']                               \n","                                                                                                  \n"," block4f_bn (BatchNormalization  (None, 14, 14, 672)  2688       ['block4f_dwconv[0][0]']         \n"," )                                                                                                \n","                                                                                                  \n"," block4f_activation (Activation  (None, 14, 14, 672)  0          ['block4f_bn[0][0]']             \n"," )                                                                                                \n","                                                                                                  \n"," block4f_se_squeeze (GlobalAver  (None, 672)         0           ['block4f_activation[0][0]']     \n"," agePooling2D)                                                                                    \n","                                                                                                  \n"," block4f_se_reshape (Reshape)   (None, 1, 1, 672)    0           ['block4f_se_squeeze[0][0]']     \n","                                                                                                  \n"," block4f_se_reduce (Conv2D)     (None, 1, 1, 28)     18844       ['block4f_se_reshape[0][0]']     \n","                                                                                                  \n"," block4f_se_expand (Conv2D)     (None, 1, 1, 672)    19488       ['block4f_se_reduce[0][0]']      \n","                                                                                                  \n"," block4f_se_excite (Multiply)   (None, 14, 14, 672)  0           ['block4f_activation[0][0]',     \n","                                                                  'block4f_se_expand[0][0]']      \n","                                                                                                  \n"," block4f_project_conv (Conv2D)  (None, 14, 14, 112)  75264       ['block4f_se_excite[0][0]']      \n","                                                                                                  \n"," block4f_project_bn (BatchNorma  (None, 14, 14, 112)  448        ['block4f_project_conv[0][0]']   \n"," lization)                                                                                        \n","                                                                                                  \n"," block4f_drop (Dropout)         (None, 14, 14, 112)  0           ['block4f_project_bn[0][0]']     \n","                                                                                                  \n"," block4f_add (Add)              (None, 14, 14, 112)  0           ['block4f_drop[0][0]',           \n","                                                                  'block4e_add[0][0]']            \n","                                                                                                  \n"," block5a_expand_conv (Conv2D)   (None, 14, 14, 672)  75264       ['block4f_add[0][0]']            \n","                                                                                                  \n"," block5a_expand_bn (BatchNormal  (None, 14, 14, 672)  2688       ['block5a_expand_conv[0][0]']    \n"," ization)                                                                                         \n","                                                                                                  \n"," block5a_expand_activation (Act  (None, 14, 14, 672)  0          ['block5a_expand_bn[0][0]']      \n"," ivation)                                                                                         \n","                                                                                                  \n"," block5a_dwconv (DepthwiseConv2  (None, 14, 14, 672)  16800      ['block5a_expand_activation[0][0]\n"," D)                                                              ']                               \n","                                                                                                  \n"," block5a_bn (BatchNormalization  (None, 14, 14, 672)  2688       ['block5a_dwconv[0][0]']         \n"," )                                                                                                \n","                                                                                                  \n"," block5a_activation (Activation  (None, 14, 14, 672)  0          ['block5a_bn[0][0]']             \n"," )                                                                                                \n","                                                                                                  \n"," block5a_se_squeeze (GlobalAver  (None, 672)         0           ['block5a_activation[0][0]']     \n"," agePooling2D)                                                                                    \n","                                                                                                  \n"," block5a_se_reshape (Reshape)   (None, 1, 1, 672)    0           ['block5a_se_squeeze[0][0]']     \n","                                                                                                  \n"," block5a_se_reduce (Conv2D)     (None, 1, 1, 28)     18844       ['block5a_se_reshape[0][0]']     \n","                                                                                                  \n"," block5a_se_expand (Conv2D)     (None, 1, 1, 672)    19488       ['block5a_se_reduce[0][0]']      \n","                                                                                                  \n"," block5a_se_excite (Multiply)   (None, 14, 14, 672)  0           ['block5a_activation[0][0]',     \n","                                                                  'block5a_se_expand[0][0]']      \n","                                                                                                  \n"," block5a_project_conv (Conv2D)  (None, 14, 14, 160)  107520      ['block5a_se_excite[0][0]']      \n","                                                                                                  \n"," block5a_project_bn (BatchNorma  (None, 14, 14, 160)  640        ['block5a_project_conv[0][0]']   \n"," lization)                                                                                        \n","                                                                                                  \n"," block5b_expand_conv (Conv2D)   (None, 14, 14, 960)  153600      ['block5a_project_bn[0][0]']     \n","                                                                                                  \n"," block5b_expand_bn (BatchNormal  (None, 14, 14, 960)  3840       ['block5b_expand_conv[0][0]']    \n"," ization)                                                                                         \n","                                                                                                  \n"," block5b_expand_activation (Act  (None, 14, 14, 960)  0          ['block5b_expand_bn[0][0]']      \n"," ivation)                                                                                         \n","                                                                                                  \n"," block5b_dwconv (DepthwiseConv2  (None, 14, 14, 960)  24000      ['block5b_expand_activation[0][0]\n"," D)                                                              ']                               \n","                                                                                                  \n"," block5b_bn (BatchNormalization  (None, 14, 14, 960)  3840       ['block5b_dwconv[0][0]']         \n"," )                                                                                                \n","                                                                                                  \n"," block5b_activation (Activation  (None, 14, 14, 960)  0          ['block5b_bn[0][0]']             \n"," )                                                                                                \n","                                                                                                  \n"," block5b_se_squeeze (GlobalAver  (None, 960)         0           ['block5b_activation[0][0]']     \n"," agePooling2D)                                                                                    \n","                                                                                                  \n"," block5b_se_reshape (Reshape)   (None, 1, 1, 960)    0           ['block5b_se_squeeze[0][0]']     \n","                                                                                                  \n"," block5b_se_reduce (Conv2D)     (None, 1, 1, 40)     38440       ['block5b_se_reshape[0][0]']     \n","                                                                                                  \n"," block5b_se_expand (Conv2D)     (None, 1, 1, 960)    39360       ['block5b_se_reduce[0][0]']      \n","                                                                                                  \n"," block5b_se_excite (Multiply)   (None, 14, 14, 960)  0           ['block5b_activation[0][0]',     \n","                                                                  'block5b_se_expand[0][0]']      \n","                                                                                                  \n"," block5b_project_conv (Conv2D)  (None, 14, 14, 160)  153600      ['block5b_se_excite[0][0]']      \n","                                                                                                  \n"," block5b_project_bn (BatchNorma  (None, 14, 14, 160)  640        ['block5b_project_conv[0][0]']   \n"," lization)                                                                                        \n","                                                                                                  \n"," block5b_drop (Dropout)         (None, 14, 14, 160)  0           ['block5b_project_bn[0][0]']     \n","                                                                                                  \n"," block5b_add (Add)              (None, 14, 14, 160)  0           ['block5b_drop[0][0]',           \n","                                                                  'block5a_project_bn[0][0]']     \n","                                                                                                  \n"," block5c_expand_conv (Conv2D)   (None, 14, 14, 960)  153600      ['block5b_add[0][0]']            \n","                                                                                                  \n"," block5c_expand_bn (BatchNormal  (None, 14, 14, 960)  3840       ['block5c_expand_conv[0][0]']    \n"," ization)                                                                                         \n","                                                                                                  \n"," block5c_expand_activation (Act  (None, 14, 14, 960)  0          ['block5c_expand_bn[0][0]']      \n"," ivation)                                                                                         \n","                                                                                                  \n"," block5c_dwconv (DepthwiseConv2  (None, 14, 14, 960)  24000      ['block5c_expand_activation[0][0]\n"," D)                                                              ']                               \n","                                                                                                  \n"," block5c_bn (BatchNormalization  (None, 14, 14, 960)  3840       ['block5c_dwconv[0][0]']         \n"," )                                                                                                \n","                                                                                                  \n"," block5c_activation (Activation  (None, 14, 14, 960)  0          ['block5c_bn[0][0]']             \n"," )                                                                                                \n","                                                                                                  \n"," block5c_se_squeeze (GlobalAver  (None, 960)         0           ['block5c_activation[0][0]']     \n"," agePooling2D)                                                                                    \n","                                                                                                  \n"," block5c_se_reshape (Reshape)   (None, 1, 1, 960)    0           ['block5c_se_squeeze[0][0]']     \n","                                                                                                  \n"," block5c_se_reduce (Conv2D)     (None, 1, 1, 40)     38440       ['block5c_se_reshape[0][0]']     \n","                                                                                                  \n"," block5c_se_expand (Conv2D)     (None, 1, 1, 960)    39360       ['block5c_se_reduce[0][0]']      \n","                                                                                                  \n"," block5c_se_excite (Multiply)   (None, 14, 14, 960)  0           ['block5c_activation[0][0]',     \n","                                                                  'block5c_se_expand[0][0]']      \n","                                                                                                  \n"," block5c_project_conv (Conv2D)  (None, 14, 14, 160)  153600      ['block5c_se_excite[0][0]']      \n","                                                                                                  \n"," block5c_project_bn (BatchNorma  (None, 14, 14, 160)  640        ['block5c_project_conv[0][0]']   \n"," lization)                                                                                        \n","                                                                                                  \n"," block5c_drop (Dropout)         (None, 14, 14, 160)  0           ['block5c_project_bn[0][0]']     \n","                                                                                                  \n"," block5c_add (Add)              (None, 14, 14, 160)  0           ['block5c_drop[0][0]',           \n","                                                                  'block5b_add[0][0]']            \n","                                                                                                  \n"," block5d_expand_conv (Conv2D)   (None, 14, 14, 960)  153600      ['block5c_add[0][0]']            \n","                                                                                                  \n"," block5d_expand_bn (BatchNormal  (None, 14, 14, 960)  3840       ['block5d_expand_conv[0][0]']    \n"," ization)                                                                                         \n","                                                                                                  \n"," block5d_expand_activation (Act  (None, 14, 14, 960)  0          ['block5d_expand_bn[0][0]']      \n"," ivation)                                                                                         \n","                                                                                                  \n"," block5d_dwconv (DepthwiseConv2  (None, 14, 14, 960)  24000      ['block5d_expand_activation[0][0]\n"," D)                                                              ']                               \n","                                                                                                  \n"," block5d_bn (BatchNormalization  (None, 14, 14, 960)  3840       ['block5d_dwconv[0][0]']         \n"," )                                                                                                \n","                                                                                                  \n"," block5d_activation (Activation  (None, 14, 14, 960)  0          ['block5d_bn[0][0]']             \n"," )                                                                                                \n","                                                                                                  \n"," block5d_se_squeeze (GlobalAver  (None, 960)         0           ['block5d_activation[0][0]']     \n"," agePooling2D)                                                                                    \n","                                                                                                  \n"," block5d_se_reshape (Reshape)   (None, 1, 1, 960)    0           ['block5d_se_squeeze[0][0]']     \n","                                                                                                  \n"," block5d_se_reduce (Conv2D)     (None, 1, 1, 40)     38440       ['block5d_se_reshape[0][0]']     \n","                                                                                                  \n"," block5d_se_expand (Conv2D)     (None, 1, 1, 960)    39360       ['block5d_se_reduce[0][0]']      \n","                                                                                                  \n"," block5d_se_excite (Multiply)   (None, 14, 14, 960)  0           ['block5d_activation[0][0]',     \n","                                                                  'block5d_se_expand[0][0]']      \n","                                                                                                  \n"," block5d_project_conv (Conv2D)  (None, 14, 14, 160)  153600      ['block5d_se_excite[0][0]']      \n","                                                                                                  \n"," block5d_project_bn (BatchNorma  (None, 14, 14, 160)  640        ['block5d_project_conv[0][0]']   \n"," lization)                                                                                        \n","                                                                                                  \n"," block5d_drop (Dropout)         (None, 14, 14, 160)  0           ['block5d_project_bn[0][0]']     \n","                                                                                                  \n"," block5d_add (Add)              (None, 14, 14, 160)  0           ['block5d_drop[0][0]',           \n","                                                                  'block5c_add[0][0]']            \n","                                                                                                  \n"," block5e_expand_conv (Conv2D)   (None, 14, 14, 960)  153600      ['block5d_add[0][0]']            \n","                                                                                                  \n"," block5e_expand_bn (BatchNormal  (None, 14, 14, 960)  3840       ['block5e_expand_conv[0][0]']    \n"," ization)                                                                                         \n","                                                                                                  \n"," block5e_expand_activation (Act  (None, 14, 14, 960)  0          ['block5e_expand_bn[0][0]']      \n"," ivation)                                                                                         \n","                                                                                                  \n"," block5e_dwconv (DepthwiseConv2  (None, 14, 14, 960)  24000      ['block5e_expand_activation[0][0]\n"," D)                                                              ']                               \n","                                                                                                  \n"," block5e_bn (BatchNormalization  (None, 14, 14, 960)  3840       ['block5e_dwconv[0][0]']         \n"," )                                                                                                \n","                                                                                                  \n"," block5e_activation (Activation  (None, 14, 14, 960)  0          ['block5e_bn[0][0]']             \n"," )                                                                                                \n","                                                                                                  \n"," block5e_se_squeeze (GlobalAver  (None, 960)         0           ['block5e_activation[0][0]']     \n"," agePooling2D)                                                                                    \n","                                                                                                  \n"," block5e_se_reshape (Reshape)   (None, 1, 1, 960)    0           ['block5e_se_squeeze[0][0]']     \n","                                                                                                  \n"," block5e_se_reduce (Conv2D)     (None, 1, 1, 40)     38440       ['block5e_se_reshape[0][0]']     \n","                                                                                                  \n"," block5e_se_expand (Conv2D)     (None, 1, 1, 960)    39360       ['block5e_se_reduce[0][0]']      \n","                                                                                                  \n"," block5e_se_excite (Multiply)   (None, 14, 14, 960)  0           ['block5e_activation[0][0]',     \n","                                                                  'block5e_se_expand[0][0]']      \n","                                                                                                  \n"," block5e_project_conv (Conv2D)  (None, 14, 14, 160)  153600      ['block5e_se_excite[0][0]']      \n","                                                                                                  \n"," block5e_project_bn (BatchNorma  (None, 14, 14, 160)  640        ['block5e_project_conv[0][0]']   \n"," lization)                                                                                        \n","                                                                                                  \n"," block5e_drop (Dropout)         (None, 14, 14, 160)  0           ['block5e_project_bn[0][0]']     \n","                                                                                                  \n"," block5e_add (Add)              (None, 14, 14, 160)  0           ['block5e_drop[0][0]',           \n","                                                                  'block5d_add[0][0]']            \n","                                                                                                  \n"," block5f_expand_conv (Conv2D)   (None, 14, 14, 960)  153600      ['block5e_add[0][0]']            \n","                                                                                                  \n"," block5f_expand_bn (BatchNormal  (None, 14, 14, 960)  3840       ['block5f_expand_conv[0][0]']    \n"," ization)                                                                                         \n","                                                                                                  \n"," block5f_expand_activation (Act  (None, 14, 14, 960)  0          ['block5f_expand_bn[0][0]']      \n"," ivation)                                                                                         \n","                                                                                                  \n"," block5f_dwconv (DepthwiseConv2  (None, 14, 14, 960)  24000      ['block5f_expand_activation[0][0]\n"," D)                                                              ']                               \n","                                                                                                  \n"," block5f_bn (BatchNormalization  (None, 14, 14, 960)  3840       ['block5f_dwconv[0][0]']         \n"," )                                                                                                \n","                                                                                                  \n"," block5f_activation (Activation  (None, 14, 14, 960)  0          ['block5f_bn[0][0]']             \n"," )                                                                                                \n","                                                                                                  \n"," block5f_se_squeeze (GlobalAver  (None, 960)         0           ['block5f_activation[0][0]']     \n"," agePooling2D)                                                                                    \n","                                                                                                  \n"," block5f_se_reshape (Reshape)   (None, 1, 1, 960)    0           ['block5f_se_squeeze[0][0]']     \n","                                                                                                  \n"," block5f_se_reduce (Conv2D)     (None, 1, 1, 40)     38440       ['block5f_se_reshape[0][0]']     \n","                                                                                                  \n"," block5f_se_expand (Conv2D)     (None, 1, 1, 960)    39360       ['block5f_se_reduce[0][0]']      \n","                                                                                                  \n"," block5f_se_excite (Multiply)   (None, 14, 14, 960)  0           ['block5f_activation[0][0]',     \n","                                                                  'block5f_se_expand[0][0]']      \n","                                                                                                  \n"," block5f_project_conv (Conv2D)  (None, 14, 14, 160)  153600      ['block5f_se_excite[0][0]']      \n","                                                                                                  \n"," block5f_project_bn (BatchNorma  (None, 14, 14, 160)  640        ['block5f_project_conv[0][0]']   \n"," lization)                                                                                        \n","                                                                                                  \n"," block5f_drop (Dropout)         (None, 14, 14, 160)  0           ['block5f_project_bn[0][0]']     \n","                                                                                                  \n"," block5f_add (Add)              (None, 14, 14, 160)  0           ['block5f_drop[0][0]',           \n","                                                                  'block5e_add[0][0]']            \n","                                                                                                  \n"," block6a_expand_conv (Conv2D)   (None, 14, 14, 960)  153600      ['block5f_add[0][0]']            \n","                                                                                                  \n"," block6a_expand_bn (BatchNormal  (None, 14, 14, 960)  3840       ['block6a_expand_conv[0][0]']    \n"," ization)                                                                                         \n","                                                                                                  \n"," block6a_expand_activation (Act  (None, 14, 14, 960)  0          ['block6a_expand_bn[0][0]']      \n"," ivation)                                                                                         \n","                                                                                                  \n"," block6a_dwconv_pad (ZeroPaddin  (None, 17, 17, 960)  0          ['block6a_expand_activation[0][0]\n"," g2D)                                                            ']                               \n","                                                                                                  \n"," block6a_dwconv (DepthwiseConv2  (None, 7, 7, 960)   24000       ['block6a_dwconv_pad[0][0]']     \n"," D)                                                                                               \n","                                                                                                  \n"," block6a_bn (BatchNormalization  (None, 7, 7, 960)   3840        ['block6a_dwconv[0][0]']         \n"," )                                                                                                \n","                                                                                                  \n"," block6a_activation (Activation  (None, 7, 7, 960)   0           ['block6a_bn[0][0]']             \n"," )                                                                                                \n","                                                                                                  \n"," block6a_se_squeeze (GlobalAver  (None, 960)         0           ['block6a_activation[0][0]']     \n"," agePooling2D)                                                                                    \n","                                                                                                  \n"," block6a_se_reshape (Reshape)   (None, 1, 1, 960)    0           ['block6a_se_squeeze[0][0]']     \n","                                                                                                  \n"," block6a_se_reduce (Conv2D)     (None, 1, 1, 40)     38440       ['block6a_se_reshape[0][0]']     \n","                                                                                                  \n"," block6a_se_expand (Conv2D)     (None, 1, 1, 960)    39360       ['block6a_se_reduce[0][0]']      \n","                                                                                                  \n"," block6a_se_excite (Multiply)   (None, 7, 7, 960)    0           ['block6a_activation[0][0]',     \n","                                                                  'block6a_se_expand[0][0]']      \n","                                                                                                  \n"," block6a_project_conv (Conv2D)  (None, 7, 7, 272)    261120      ['block6a_se_excite[0][0]']      \n","                                                                                                  \n"," block6a_project_bn (BatchNorma  (None, 7, 7, 272)   1088        ['block6a_project_conv[0][0]']   \n"," lization)                                                                                        \n","                                                                                                  \n"," block6b_expand_conv (Conv2D)   (None, 7, 7, 1632)   443904      ['block6a_project_bn[0][0]']     \n","                                                                                                  \n"," block6b_expand_bn (BatchNormal  (None, 7, 7, 1632)  6528        ['block6b_expand_conv[0][0]']    \n"," ization)                                                                                         \n","                                                                                                  \n"," block6b_expand_activation (Act  (None, 7, 7, 1632)  0           ['block6b_expand_bn[0][0]']      \n"," ivation)                                                                                         \n","                                                                                                  \n"," block6b_dwconv (DepthwiseConv2  (None, 7, 7, 1632)  40800       ['block6b_expand_activation[0][0]\n"," D)                                                              ']                               \n","                                                                                                  \n"," block6b_bn (BatchNormalization  (None, 7, 7, 1632)  6528        ['block6b_dwconv[0][0]']         \n"," )                                                                                                \n","                                                                                                  \n"," block6b_activation (Activation  (None, 7, 7, 1632)  0           ['block6b_bn[0][0]']             \n"," )                                                                                                \n","                                                                                                  \n"," block6b_se_squeeze (GlobalAver  (None, 1632)        0           ['block6b_activation[0][0]']     \n"," agePooling2D)                                                                                    \n","                                                                                                  \n"," block6b_se_reshape (Reshape)   (None, 1, 1, 1632)   0           ['block6b_se_squeeze[0][0]']     \n","                                                                                                  \n"," block6b_se_reduce (Conv2D)     (None, 1, 1, 68)     111044      ['block6b_se_reshape[0][0]']     \n","                                                                                                  \n"," block6b_se_expand (Conv2D)     (None, 1, 1, 1632)   112608      ['block6b_se_reduce[0][0]']      \n","                                                                                                  \n"," block6b_se_excite (Multiply)   (None, 7, 7, 1632)   0           ['block6b_activation[0][0]',     \n","                                                                  'block6b_se_expand[0][0]']      \n","                                                                                                  \n"," block6b_project_conv (Conv2D)  (None, 7, 7, 272)    443904      ['block6b_se_excite[0][0]']      \n","                                                                                                  \n"," block6b_project_bn (BatchNorma  (None, 7, 7, 272)   1088        ['block6b_project_conv[0][0]']   \n"," lization)                                                                                        \n","                                                                                                  \n"," block6b_drop (Dropout)         (None, 7, 7, 272)    0           ['block6b_project_bn[0][0]']     \n","                                                                                                  \n"," block6b_add (Add)              (None, 7, 7, 272)    0           ['block6b_drop[0][0]',           \n","                                                                  'block6a_project_bn[0][0]']     \n","                                                                                                  \n"," block6c_expand_conv (Conv2D)   (None, 7, 7, 1632)   443904      ['block6b_add[0][0]']            \n","                                                                                                  \n"," block6c_expand_bn (BatchNormal  (None, 7, 7, 1632)  6528        ['block6c_expand_conv[0][0]']    \n"," ization)                                                                                         \n","                                                                                                  \n"," block6c_expand_activation (Act  (None, 7, 7, 1632)  0           ['block6c_expand_bn[0][0]']      \n"," ivation)                                                                                         \n","                                                                                                  \n"," block6c_dwconv (DepthwiseConv2  (None, 7, 7, 1632)  40800       ['block6c_expand_activation[0][0]\n"," D)                                                              ']                               \n","                                                                                                  \n"," block6c_bn (BatchNormalization  (None, 7, 7, 1632)  6528        ['block6c_dwconv[0][0]']         \n"," )                                                                                                \n","                                                                                                  \n"," block6c_activation (Activation  (None, 7, 7, 1632)  0           ['block6c_bn[0][0]']             \n"," )                                                                                                \n","                                                                                                  \n"," block6c_se_squeeze (GlobalAver  (None, 1632)        0           ['block6c_activation[0][0]']     \n"," agePooling2D)                                                                                    \n","                                                                                                  \n"," block6c_se_reshape (Reshape)   (None, 1, 1, 1632)   0           ['block6c_se_squeeze[0][0]']     \n","                                                                                                  \n"," block6c_se_reduce (Conv2D)     (None, 1, 1, 68)     111044      ['block6c_se_reshape[0][0]']     \n","                                                                                                  \n"," block6c_se_expand (Conv2D)     (None, 1, 1, 1632)   112608      ['block6c_se_reduce[0][0]']      \n","                                                                                                  \n"," block6c_se_excite (Multiply)   (None, 7, 7, 1632)   0           ['block6c_activation[0][0]',     \n","                                                                  'block6c_se_expand[0][0]']      \n","                                                                                                  \n"," block6c_project_conv (Conv2D)  (None, 7, 7, 272)    443904      ['block6c_se_excite[0][0]']      \n","                                                                                                  \n"," block6c_project_bn (BatchNorma  (None, 7, 7, 272)   1088        ['block6c_project_conv[0][0]']   \n"," lization)                                                                                        \n","                                                                                                  \n"," block6c_drop (Dropout)         (None, 7, 7, 272)    0           ['block6c_project_bn[0][0]']     \n","                                                                                                  \n"," block6c_add (Add)              (None, 7, 7, 272)    0           ['block6c_drop[0][0]',           \n","                                                                  'block6b_add[0][0]']            \n","                                                                                                  \n"," block6d_expand_conv (Conv2D)   (None, 7, 7, 1632)   443904      ['block6c_add[0][0]']            \n","                                                                                                  \n"," block6d_expand_bn (BatchNormal  (None, 7, 7, 1632)  6528        ['block6d_expand_conv[0][0]']    \n"," ization)                                                                                         \n","                                                                                                  \n"," block6d_expand_activation (Act  (None, 7, 7, 1632)  0           ['block6d_expand_bn[0][0]']      \n"," ivation)                                                                                         \n","                                                                                                  \n"," block6d_dwconv (DepthwiseConv2  (None, 7, 7, 1632)  40800       ['block6d_expand_activation[0][0]\n"," D)                                                              ']                               \n","                                                                                                  \n"," block6d_bn (BatchNormalization  (None, 7, 7, 1632)  6528        ['block6d_dwconv[0][0]']         \n"," )                                                                                                \n","                                                                                                  \n"," block6d_activation (Activation  (None, 7, 7, 1632)  0           ['block6d_bn[0][0]']             \n"," )                                                                                                \n","                                                                                                  \n"," block6d_se_squeeze (GlobalAver  (None, 1632)        0           ['block6d_activation[0][0]']     \n"," agePooling2D)                                                                                    \n","                                                                                                  \n"," block6d_se_reshape (Reshape)   (None, 1, 1, 1632)   0           ['block6d_se_squeeze[0][0]']     \n","                                                                                                  \n"," block6d_se_reduce (Conv2D)     (None, 1, 1, 68)     111044      ['block6d_se_reshape[0][0]']     \n","                                                                                                  \n"," block6d_se_expand (Conv2D)     (None, 1, 1, 1632)   112608      ['block6d_se_reduce[0][0]']      \n","                                                                                                  \n"," block6d_se_excite (Multiply)   (None, 7, 7, 1632)   0           ['block6d_activation[0][0]',     \n","                                                                  'block6d_se_expand[0][0]']      \n","                                                                                                  \n"," block6d_project_conv (Conv2D)  (None, 7, 7, 272)    443904      ['block6d_se_excite[0][0]']      \n","                                                                                                  \n"," block6d_project_bn (BatchNorma  (None, 7, 7, 272)   1088        ['block6d_project_conv[0][0]']   \n"," lization)                                                                                        \n","                                                                                                  \n"," block6d_drop (Dropout)         (None, 7, 7, 272)    0           ['block6d_project_bn[0][0]']     \n","                                                                                                  \n"," block6d_add (Add)              (None, 7, 7, 272)    0           ['block6d_drop[0][0]',           \n","                                                                  'block6c_add[0][0]']            \n","                                                                                                  \n"," block6e_expand_conv (Conv2D)   (None, 7, 7, 1632)   443904      ['block6d_add[0][0]']            \n","                                                                                                  \n"," block6e_expand_bn (BatchNormal  (None, 7, 7, 1632)  6528        ['block6e_expand_conv[0][0]']    \n"," ization)                                                                                         \n","                                                                                                  \n"," block6e_expand_activation (Act  (None, 7, 7, 1632)  0           ['block6e_expand_bn[0][0]']      \n"," ivation)                                                                                         \n","                                                                                                  \n"," block6e_dwconv (DepthwiseConv2  (None, 7, 7, 1632)  40800       ['block6e_expand_activation[0][0]\n"," D)                                                              ']                               \n","                                                                                                  \n"," block6e_bn (BatchNormalization  (None, 7, 7, 1632)  6528        ['block6e_dwconv[0][0]']         \n"," )                                                                                                \n","                                                                                                  \n"," block6e_activation (Activation  (None, 7, 7, 1632)  0           ['block6e_bn[0][0]']             \n"," )                                                                                                \n","                                                                                                  \n"," block6e_se_squeeze (GlobalAver  (None, 1632)        0           ['block6e_activation[0][0]']     \n"," agePooling2D)                                                                                    \n","                                                                                                  \n"," block6e_se_reshape (Reshape)   (None, 1, 1, 1632)   0           ['block6e_se_squeeze[0][0]']     \n","                                                                                                  \n"," block6e_se_reduce (Conv2D)     (None, 1, 1, 68)     111044      ['block6e_se_reshape[0][0]']     \n","                                                                                                  \n"," block6e_se_expand (Conv2D)     (None, 1, 1, 1632)   112608      ['block6e_se_reduce[0][0]']      \n","                                                                                                  \n"," block6e_se_excite (Multiply)   (None, 7, 7, 1632)   0           ['block6e_activation[0][0]',     \n","                                                                  'block6e_se_expand[0][0]']      \n","                                                                                                  \n"," block6e_project_conv (Conv2D)  (None, 7, 7, 272)    443904      ['block6e_se_excite[0][0]']      \n","                                                                                                  \n"," block6e_project_bn (BatchNorma  (None, 7, 7, 272)   1088        ['block6e_project_conv[0][0]']   \n"," lization)                                                                                        \n","                                                                                                  \n"," block6e_drop (Dropout)         (None, 7, 7, 272)    0           ['block6e_project_bn[0][0]']     \n","                                                                                                  \n"," block6e_add (Add)              (None, 7, 7, 272)    0           ['block6e_drop[0][0]',           \n","                                                                  'block6d_add[0][0]']            \n","                                                                                                  \n"," block6f_expand_conv (Conv2D)   (None, 7, 7, 1632)   443904      ['block6e_add[0][0]']            \n","                                                                                                  \n"," block6f_expand_bn (BatchNormal  (None, 7, 7, 1632)  6528        ['block6f_expand_conv[0][0]']    \n"," ization)                                                                                         \n","                                                                                                  \n"," block6f_expand_activation (Act  (None, 7, 7, 1632)  0           ['block6f_expand_bn[0][0]']      \n"," ivation)                                                                                         \n","                                                                                                  \n"," block6f_dwconv (DepthwiseConv2  (None, 7, 7, 1632)  40800       ['block6f_expand_activation[0][0]\n"," D)                                                              ']                               \n","                                                                                                  \n"," block6f_bn (BatchNormalization  (None, 7, 7, 1632)  6528        ['block6f_dwconv[0][0]']         \n"," )                                                                                                \n","                                                                                                  \n"," block6f_activation (Activation  (None, 7, 7, 1632)  0           ['block6f_bn[0][0]']             \n"," )                                                                                                \n","                                                                                                  \n"," block6f_se_squeeze (GlobalAver  (None, 1632)        0           ['block6f_activation[0][0]']     \n"," agePooling2D)                                                                                    \n","                                                                                                  \n"," block6f_se_reshape (Reshape)   (None, 1, 1, 1632)   0           ['block6f_se_squeeze[0][0]']     \n","                                                                                                  \n"," block6f_se_reduce (Conv2D)     (None, 1, 1, 68)     111044      ['block6f_se_reshape[0][0]']     \n","                                                                                                  \n"," block6f_se_expand (Conv2D)     (None, 1, 1, 1632)   112608      ['block6f_se_reduce[0][0]']      \n","                                                                                                  \n"," block6f_se_excite (Multiply)   (None, 7, 7, 1632)   0           ['block6f_activation[0][0]',     \n","                                                                  'block6f_se_expand[0][0]']      \n","                                                                                                  \n"," block6f_project_conv (Conv2D)  (None, 7, 7, 272)    443904      ['block6f_se_excite[0][0]']      \n","                                                                                                  \n"," block6f_project_bn (BatchNorma  (None, 7, 7, 272)   1088        ['block6f_project_conv[0][0]']   \n"," lization)                                                                                        \n","                                                                                                  \n"," block6f_drop (Dropout)         (None, 7, 7, 272)    0           ['block6f_project_bn[0][0]']     \n","                                                                                                  \n"," block6f_add (Add)              (None, 7, 7, 272)    0           ['block6f_drop[0][0]',           \n","                                                                  'block6e_add[0][0]']            \n","                                                                                                  \n"," block6g_expand_conv (Conv2D)   (None, 7, 7, 1632)   443904      ['block6f_add[0][0]']            \n","                                                                                                  \n"," block6g_expand_bn (BatchNormal  (None, 7, 7, 1632)  6528        ['block6g_expand_conv[0][0]']    \n"," ization)                                                                                         \n","                                                                                                  \n"," block6g_expand_activation (Act  (None, 7, 7, 1632)  0           ['block6g_expand_bn[0][0]']      \n"," ivation)                                                                                         \n","                                                                                                  \n"," block6g_dwconv (DepthwiseConv2  (None, 7, 7, 1632)  40800       ['block6g_expand_activation[0][0]\n"," D)                                                              ']                               \n","                                                                                                  \n"," block6g_bn (BatchNormalization  (None, 7, 7, 1632)  6528        ['block6g_dwconv[0][0]']         \n"," )                                                                                                \n","                                                                                                  \n"," block6g_activation (Activation  (None, 7, 7, 1632)  0           ['block6g_bn[0][0]']             \n"," )                                                                                                \n","                                                                                                  \n"," block6g_se_squeeze (GlobalAver  (None, 1632)        0           ['block6g_activation[0][0]']     \n"," agePooling2D)                                                                                    \n","                                                                                                  \n"," block6g_se_reshape (Reshape)   (None, 1, 1, 1632)   0           ['block6g_se_squeeze[0][0]']     \n","                                                                                                  \n"," block6g_se_reduce (Conv2D)     (None, 1, 1, 68)     111044      ['block6g_se_reshape[0][0]']     \n","                                                                                                  \n"," block6g_se_expand (Conv2D)     (None, 1, 1, 1632)   112608      ['block6g_se_reduce[0][0]']      \n","                                                                                                  \n"," block6g_se_excite (Multiply)   (None, 7, 7, 1632)   0           ['block6g_activation[0][0]',     \n","                                                                  'block6g_se_expand[0][0]']      \n","                                                                                                  \n"," block6g_project_conv (Conv2D)  (None, 7, 7, 272)    443904      ['block6g_se_excite[0][0]']      \n","                                                                                                  \n"," block6g_project_bn (BatchNorma  (None, 7, 7, 272)   1088        ['block6g_project_conv[0][0]']   \n"," lization)                                                                                        \n","                                                                                                  \n"," block6g_drop (Dropout)         (None, 7, 7, 272)    0           ['block6g_project_bn[0][0]']     \n","                                                                                                  \n"," block6g_add (Add)              (None, 7, 7, 272)    0           ['block6g_drop[0][0]',           \n","                                                                  'block6f_add[0][0]']            \n","                                                                                                  \n"," block6h_expand_conv (Conv2D)   (None, 7, 7, 1632)   443904      ['block6g_add[0][0]']            \n","                                                                                                  \n"," block6h_expand_bn (BatchNormal  (None, 7, 7, 1632)  6528        ['block6h_expand_conv[0][0]']    \n"," ization)                                                                                         \n","                                                                                                  \n"," block6h_expand_activation (Act  (None, 7, 7, 1632)  0           ['block6h_expand_bn[0][0]']      \n"," ivation)                                                                                         \n","                                                                                                  \n"," block6h_dwconv (DepthwiseConv2  (None, 7, 7, 1632)  40800       ['block6h_expand_activation[0][0]\n"," D)                                                              ']                               \n","                                                                                                  \n"," block6h_bn (BatchNormalization  (None, 7, 7, 1632)  6528        ['block6h_dwconv[0][0]']         \n"," )                                                                                                \n","                                                                                                  \n"," block6h_activation (Activation  (None, 7, 7, 1632)  0           ['block6h_bn[0][0]']             \n"," )                                                                                                \n","                                                                                                  \n"," block6h_se_squeeze (GlobalAver  (None, 1632)        0           ['block6h_activation[0][0]']     \n"," agePooling2D)                                                                                    \n","                                                                                                  \n"," block6h_se_reshape (Reshape)   (None, 1, 1, 1632)   0           ['block6h_se_squeeze[0][0]']     \n","                                                                                                  \n"," block6h_se_reduce (Conv2D)     (None, 1, 1, 68)     111044      ['block6h_se_reshape[0][0]']     \n","                                                                                                  \n"," block6h_se_expand (Conv2D)     (None, 1, 1, 1632)   112608      ['block6h_se_reduce[0][0]']      \n","                                                                                                  \n"," block6h_se_excite (Multiply)   (None, 7, 7, 1632)   0           ['block6h_activation[0][0]',     \n","                                                                  'block6h_se_expand[0][0]']      \n","                                                                                                  \n"," block6h_project_conv (Conv2D)  (None, 7, 7, 272)    443904      ['block6h_se_excite[0][0]']      \n","                                                                                                  \n"," block6h_project_bn (BatchNorma  (None, 7, 7, 272)   1088        ['block6h_project_conv[0][0]']   \n"," lization)                                                                                        \n","                                                                                                  \n"," block6h_drop (Dropout)         (None, 7, 7, 272)    0           ['block6h_project_bn[0][0]']     \n","                                                                                                  \n"," block6h_add (Add)              (None, 7, 7, 272)    0           ['block6h_drop[0][0]',           \n","                                                                  'block6g_add[0][0]']            \n","                                                                                                  \n"," block7a_expand_conv (Conv2D)   (None, 7, 7, 1632)   443904      ['block6h_add[0][0]']            \n","                                                                                                  \n"," block7a_expand_bn (BatchNormal  (None, 7, 7, 1632)  6528        ['block7a_expand_conv[0][0]']    \n"," ization)                                                                                         \n","                                                                                                  \n"," block7a_expand_activation (Act  (None, 7, 7, 1632)  0           ['block7a_expand_bn[0][0]']      \n"," ivation)                                                                                         \n","                                                                                                  \n"," block7a_dwconv (DepthwiseConv2  (None, 7, 7, 1632)  14688       ['block7a_expand_activation[0][0]\n"," D)                                                              ']                               \n","                                                                                                  \n"," block7a_bn (BatchNormalization  (None, 7, 7, 1632)  6528        ['block7a_dwconv[0][0]']         \n"," )                                                                                                \n","                                                                                                  \n"," block7a_activation (Activation  (None, 7, 7, 1632)  0           ['block7a_bn[0][0]']             \n"," )                                                                                                \n","                                                                                                  \n"," block7a_se_squeeze (GlobalAver  (None, 1632)        0           ['block7a_activation[0][0]']     \n"," agePooling2D)                                                                                    \n","                                                                                                  \n"," block7a_se_reshape (Reshape)   (None, 1, 1, 1632)   0           ['block7a_se_squeeze[0][0]']     \n","                                                                                                  \n"," block7a_se_reduce (Conv2D)     (None, 1, 1, 68)     111044      ['block7a_se_reshape[0][0]']     \n","                                                                                                  \n"," block7a_se_expand (Conv2D)     (None, 1, 1, 1632)   112608      ['block7a_se_reduce[0][0]']      \n","                                                                                                  \n"," block7a_se_excite (Multiply)   (None, 7, 7, 1632)   0           ['block7a_activation[0][0]',     \n","                                                                  'block7a_se_expand[0][0]']      \n","                                                                                                  \n"," block7a_project_conv (Conv2D)  (None, 7, 7, 448)    731136      ['block7a_se_excite[0][0]']      \n","                                                                                                  \n"," block7a_project_bn (BatchNorma  (None, 7, 7, 448)   1792        ['block7a_project_conv[0][0]']   \n"," lization)                                                                                        \n","                                                                                                  \n"," block7b_expand_conv (Conv2D)   (None, 7, 7, 2688)   1204224     ['block7a_project_bn[0][0]']     \n","                                                                                                  \n"," block7b_expand_bn (BatchNormal  (None, 7, 7, 2688)  10752       ['block7b_expand_conv[0][0]']    \n"," ization)                                                                                         \n","                                                                                                  \n"," block7b_expand_activation (Act  (None, 7, 7, 2688)  0           ['block7b_expand_bn[0][0]']      \n"," ivation)                                                                                         \n","                                                                                                  \n"," block7b_dwconv (DepthwiseConv2  (None, 7, 7, 2688)  24192       ['block7b_expand_activation[0][0]\n"," D)                                                              ']                               \n","                                                                                                  \n"," block7b_bn (BatchNormalization  (None, 7, 7, 2688)  10752       ['block7b_dwconv[0][0]']         \n"," )                                                                                                \n","                                                                                                  \n"," block7b_activation (Activation  (None, 7, 7, 2688)  0           ['block7b_bn[0][0]']             \n"," )                                                                                                \n","                                                                                                  \n"," block7b_se_squeeze (GlobalAver  (None, 2688)        0           ['block7b_activation[0][0]']     \n"," agePooling2D)                                                                                    \n","                                                                                                  \n"," block7b_se_reshape (Reshape)   (None, 1, 1, 2688)   0           ['block7b_se_squeeze[0][0]']     \n","                                                                                                  \n"," block7b_se_reduce (Conv2D)     (None, 1, 1, 112)    301168      ['block7b_se_reshape[0][0]']     \n","                                                                                                  \n"," block7b_se_expand (Conv2D)     (None, 1, 1, 2688)   303744      ['block7b_se_reduce[0][0]']      \n","                                                                                                  \n"," block7b_se_excite (Multiply)   (None, 7, 7, 2688)   0           ['block7b_activation[0][0]',     \n","                                                                  'block7b_se_expand[0][0]']      \n","                                                                                                  \n"," block7b_project_conv (Conv2D)  (None, 7, 7, 448)    1204224     ['block7b_se_excite[0][0]']      \n","                                                                                                  \n"," block7b_project_bn (BatchNorma  (None, 7, 7, 448)   1792        ['block7b_project_conv[0][0]']   \n"," lization)                                                                                        \n","                                                                                                  \n"," block7b_drop (Dropout)         (None, 7, 7, 448)    0           ['block7b_project_bn[0][0]']     \n","                                                                                                  \n"," block7b_add (Add)              (None, 7, 7, 448)    0           ['block7b_drop[0][0]',           \n","                                                                  'block7a_project_bn[0][0]']     \n","                                                                                                  \n"," top_conv (Conv2D)              (None, 7, 7, 1792)   802816      ['block7b_add[0][0]']            \n","                                                                                                  \n"," top_bn (BatchNormalization)    (None, 7, 7, 1792)   7168        ['top_conv[0][0]']               \n","                                                                                                  \n"," top_activation (Activation)    (None, 7, 7, 1792)   0           ['top_bn[0][0]']                 \n","                                                                                                  \n"," avg_pool (GlobalAveragePooling  (None, 1792)        0           ['top_activation[0][0]']         \n"," 2D)                                                                                              \n","                                                                                                  \n","==================================================================================================\n","Total params: 17,673,823\n","Trainable par
…
metadata":{"id":"ab4c319c","colab":{"base_uri":"https://localhost:8080/"},"executionInfo":{"status":"ok","timestamp":1674469315462,"user_tz":-540,"elapsed":16,"user":{"displayName":"박준원","userId":"13178446148627772304"}},"outputId":"2487988c-c238-4d94-ac22-2ac5fee31c81"},"outputs":[{"output_type":"stream","name":"stdout","text":["Model: \"sequential_1\"\n","_________________________________________________________________\n"," Layer (type)                Output Shape              Param #   \n","=================================================================\n"," efficientnetb4 (Functional)  (None, 1792)             17673823  \n","                                                                 \n"," dense_2 (Dense)             (None, 512)               918016    \n","                                                                 \n"," batch_normalization_1 (Batc  (None, 512)              2048      \n"," hNormalization)                                                 \n","                                                                 \n"," activation_1 (Activation)   (None, 512)               0         \n","                                                                 \n"," dense_3 (Dense)             (None, 4)                 2052      \n","                                                                 \n","=================================================================\n","Total params: 18,595,939\n","Trainable params: 18,469,708\n","Non-trainable params: 126,231\n","_________________________________________________________________\n"]}],"source":["model.summary()"],"id":"ab4c319c"},{"cell_type":"code","execution_coun
…
